data.pth (torch_old, 5596 bytes, 6 tensors)

layer1.weight f4 [8, 88]
-0.87862754 -0.6920707 -0.38570732 -0.20623715 0.19906989 -0.34200606 -0.43533716 0.0717305
-0.8548434 -0.4963409 -0.41106257 0.866451 0.63831604 0.09061931 0.5369529 0.8438798
-0.31959084 -0.4571275 0.2011873 -0.23170786 -0.1852111 -0.21049283 -0.31021833 -0.2807067
0.4512495 -0.13544144 0.3099312 0.3406152 0.090336695 0.16914742 0.21829127 0.41853282
0.2708528 0.3395183 0.3443554 -0.32717574 0.025911847 0.44271794 0.07623167 0.20395994
0.32767743 0.006916757 0.12691866 -0.04319151 0.13901168 0.07718193 0.15056789 0.14677559
-0.24244289 -0.32304266 0.14288504 -0.26822716 -0.030274408 -0.049651165 0.098344766 -0.36922348
0.015918812 -0.20292532 -0.27579546 -0.39358342 -0.04245913 -0.10570042 -0.12589677 -0.021792438
-0.52898633 0.026753992 0.04036347 -0.011748 0.019642262 -0.26847216 0.1314081 -0.26459393
-0.14597702 -0.27616447 -0.08538701 0.4598142 0.52437073 0.4006411 0.36353454 0.45266178
0.44712508 0.41304633 0.48274404 0.07079027 0.18348677 0.22315641 0.29624712 0.47175914
0.6781838 0.46703812 0.51033384 0.12999564 -0.017224802 0.2994405 0.29740548 0.11935765
0.5786883 0.40501997 0.4175059 -0.25400823 -0.038276605 -0.002334363 -0.035117835 -0.3228779
0.48464403 0.52580065 -0.006938687 0.3635293 0.3138394 0.25628608 0.4548451 0.25930655
0.51901215 0.2713484 -0.4529716 -0.20266011 0.08159237 0.019053267 -0.5031866 -0.3264299
-0.18897022 -0.036783166 -0.27146393 0.09858641 0.18598063 -0.27398944 0.080926664 0.072114736
-0.43094933 0.1696179 0.12832262 0.2051518 -0.26266262 -0.25861976 0.018001368 0.011229123
-0.30940908 -0.22680768 -0.23464037 0.17670386 -0.13329333 -0.12383666 -0.20950846 0.18482593
0.120040685 -0.30507922 -0.28192225 0.5199037 0.42873377 0.33329147 0.5038325 0.20915379
0.58979636 0.42916048 0.4472286 0.3363734 0.18351273 0.38703123 0.13924769 0.019811409
0.4260619 0.45066825 0.40746334 0.4156014 0.51424885 0.4272485 0.4836515 0.44633582
0.47468647 0.3783508 0.393287 0.050379544 0.06231784 0.3871239 0.42422298 0.44249493
0.5025234 0.52675796 0.43474054 0.46415105 0.23179065 0.26097974 0.41379008 0.31928924
0.62182385 0.3114987 0.30612624 0.14549044 -0.24659829 0.020299515 -0.09867316 0.19232778
-0.21309948 -0.29305825 0.029565202 -0.13657932 -0.07907248 -0.1620913 -0.17648545 -0.22359248
-0.2976088 -0.08482781 -0.3553875 -0.37212998 0.23356831 0.033602748 -0.3889354 -0.49954
-0.05738799 -0.00029426397 -0.33544838 0.37691885 0.17484891 -0.507796 0.19327156 0.20278421
-0.56446135 0.23096323 0.19353655 0.37458578 0.19903795 0.27470604 0.16484761 0.095393635
0.42291504 0.5590439 0.3936635 0.5470973 0.31529424 0.29268777 0.3300697 0.38375434
0.22473602 0.50081336 0.31092703 0.32957798 0.3328915 0.45500526 0.53065026 0.40300953
0.36406928 0.29103798 0.4624977 0.25922748 0.4511624 0.3878333 0.14105128 0.44387805
0.32021242 0.372763 0.3650232 -0.09186516 -0.12020257 -0.35413975 -0.396035 -0.22974354
00000000: bced 60bf 8c2b 31bf 6e7b c5be d52f 53be
00000010: fad8 4b3e 6b1b afbe 83e4 debe 71e7 923d
00000020: 04d7 5abf 6520 febe cb76 d2be bccf 5d3f
00000030: ae68 233f 9e96 b93d bf75 093f 8208 583f
00000040: 69a1 a3be 9e0c eabe 0b04 4e3e d344 6dbe
00000050: fba7 3dbe 6f8b 57be f0d4 9ebe cab8 8fbe
00000060: 2d0a e73e 29b1 0abe 4daf 9e3e 1e65 ae3e
00000070: 7202 b93d fb34 2d3e bf87 5f3e ef49 d63e
00000080: 38ad 8a3e 58d5 ad3e 5a4f b03e 9483 a7be
00000090: 1545 d43c edab e23e 5a1f 9c3d e0da 503e
000000a0: 56c5 a73e f7a5 e23b f7f6 013e 95e9 30bd
000000b0: 1459 0e3e 8f11 9e3d 782e 1a3e 574c 163e
000000c0: f342 78be d965 a5be 7550 123e 1255 89be
000000d0: 0902 f8bc 055f 4bbd fb68 c93d dc0a bdbe
000000e0: 2b68 823c a8cb 4fbe 1035 8dbe c483 c9be
000000f0: a0e9 2dbd 7679 d8bd 15eb 00be 0e86 b2bc
00000100: a66b 07bf 302b db3c 2a54 253d af7a 40bc
00000110: cfe8 a03c 2f75 89be d88f 063e db78 87be
00000120: 007b 15be 6e65 8dbe 62df aebd c46c eb3e
00000130: 293d 063f d520 cd3e 3321 ba3e 49c3 e73e
00000140: 94ed e43e cf7a d33e 3a2a f73e 7dfa 903d
00000150: f5e3 3b3e 1d83 643e b4ad 973e 6a8a f13e
00000160: 749d 2d3f 9f1f ef3e 3da5 023f 941d 053e
00000170: 071b 8dbc 4450 993e 8845 983e c971 f43d
00000180: eb24 143f c75e cf3e 55c3 d53e 5e0d 82be
00000190: eec7 1cbd 1dfc 18bb b8d7 0fbd 4150 a5be
000001a0: 4323 f83e df9a 063f ed5d e3bb 8320 ba3e
000001b0: 8faf a03e ee37 833e 75e1 e83e d4c3 843e
000001c0: fbdd 043f 2dee 8a3e e5eb e7be 2286 4fbe
000001d0: e719 a73d 9915 9c3c d6d0 00bf d221 a7be
000001e0: 6981 41be f2a9 16bd 52fd 8abe ace7 c93d
000001f0: b571 3e3e 5848 8cbe e1bc a53d e4b0 933d
00000200: 64a5 dcbe 51b0 2d3e 0167 033e 5013 523e
00000210: b77b 86be cf69 84be 9b77 933c 5bfa 373c
00000220: de6a 9ebe 4640 68be 9145 70be dbf1 343e
00000230: 0c7e 08be 139e fdbd 6389 56be 0243 3d3e
00000240: e4d7 f53d 5833 9cbe 1d58 90be 6918 053f
00000250: fe82 db3e 2ea5 aa3e 2bfb 003f 692c 563e
00000260: e5fc 163f ecba db3e 26fb e43e 2239 ac3e
00000270: c3ea 3b3e f528 c63e f296 0e3e 894b a23c
00000280: c924 da3e fdbd e63e 099f d03e b5c9 d43e
00000290: d0a5 033f 51c0 da3e 2ba1 f73e 2186 e43e
000002a0: 1b0a f33e 32b7 c13e ea5c c93e c85a 4e3d
000002b0: fe40 7f3d 1b35 c63e c133 d93e b28e e23e
000002c0: 60a5 003f 9cd9 063f 5096 de3e 35a5 ed3e
000002d0: 875a 6d3e 239f 853e 4bdc d33e e179 a33e
000002e0: d92f 1f3f c27c 9f3e 94bc 9c3e 72fb 143e
000002f0: 4384 7cbe 2b4b a63c 2715 cabd 93f1 443e
00000300: c036 5abe bb0b 96be b932 f23c 73db 0bbe
00000310: c1f0 a1bd 43fb 25be 9ab8 34be 6df5 64be
00000320: 2e60 98be 34ba adbd 5af5 b5be d287 bebe
00000330: 882c 6f3e 09a3 093d 8a22 c7be b5c3 ffbe
00000340: ab0f 6bbd 7147 9ab9 e4bf abbe 82fb c03e
00000350: 980b 333e ebfe 01bf fbe8 453e aaa6 4f3e
00000360: 8a80 10bf a081 6c3e 722e 463e b5c9 bf3e
00000370: 9bd0 4b3e 45a6 8c3e d0cd 283e bd5d c33d
00000380: 5288 d83e 801d 0f3f 438e c93e 920e 0c3f
00000390: 3f6e a13e 2cdb 953e e5fe a83e 737b c43e
000003a0: 3321 663e 4e35 003f d431 9f3e 72be a83e
000003b0: c170 aa3e 73f6 e83e b2d8 073f 4457 ce3e
000003c0: 4a67 ba3e ee02 953e 80cc ec3e 77b9 843e
000003d0: c2fe e63e 1692 c63e bf6f 103e fc43 e33e
000003e0: e2f2 a33e cbda be3e 52e4 ba3e cd23 bcbd
000003f0: c42c f6bd ce51 b5be 19c5 cabe e441 6bbe

layer1.bias f4 [8]
0.9078572 0.50488573 0.7565292 0.16811244 0.55891895 0.7361703 0.25396407 0.61973125
00000000: 5469 683f 3140 013f e6ab 413f ab25 2c3e
00000010: 5015 0f3f a875 3c3f 9407 823e b5a6 1e3f

layer2.weight f4 [8, 8]
-0.6166026 0.5625498 1.0371757 -0.83334285 0.51455635 0.2755399 -0.4963043 0.9986318
0.78174907 1.0741649 0.0881052 0.10815207 -0.6285244 0.48960686 -0.11233704 -0.570258
1.0828608 -0.060384315 0.25017083 -0.25048888 0.49296805 0.7257352 -0.56241065 -0.15882806
-0.45202485 0.6440381 0.8165205 0.7697285 0.15527374 -0.7021296 1.2219881 -0.45669973
0.18535051 -0.29732972 -0.32233936 -0.06516687 -0.09314006 0.08146594 -0.11712082 0.007885963
0.59527326 -0.8933419 0.52644897 -0.24922681 0.8779537 -0.014624729 0.5751377 -0.73943
-0.5146034 0.4822878 -0.5400031 0.3692227 0.28859824 1.1636072 0.36592945 1.2439995
-0.09362182 0.013383318 -0.56793904 1.0719208 0.5348617 0.8417901 0.6569272 -0.45938185
00000000: abd9 1dbf 4403 103f 2cc2 843f f555 55bf
00000010: f7b9 033f 9113 8d3e 991b febe 55a6 7f3f
00000020: b520 483f 3c7e 893f 8070 b43d d57e dd3d
00000030: fae6 20bf c0ad fa3e f610 e6bd 6efc 11bf
00000040: 2f9b 8a3f 8b55 77bd 6416 803e 1440 80be
00000050: 4f66 fc3e c8c9 393f 25fa 0fbf d3a3 22be
00000060: cd6f e7be aedf 243f 7d07 513f ed0c 453f
00000070: 1400 1f3e c4be 33bf 1b6a 9c3f 8cd4 e9be
00000080: 86cc 3d3e 9a3b 98be aa09 a5be 3576 85bd
00000090: 37c0 bebd 9dd7 a63d 0add efbd 2034 013c
000000a0: d463 183f 0eb2 64bf 5cc5 063f 5035 7fbe
000000b0: 93c1 603f 8f9c 6fbc 393c 133f 494b 3dbf
000000c0: 0cbd 03bf 6dee f63e a53d 0abf c20a bd3e
000000d0: 26c3 933e 15f1 943f 1b5b bb3e 603b 9f3f
000000e0: ccbc bfbd b445 5b3c 7464 11bf b334 893f
000000f0: b2ec 083f 8e7f 573f 622c 283f 1934 ebbe

layer2.bias f4 [8]
0.5203349 1.1071594 0.5595875 0.15388556 -0.2851813 0.50075054 0.32684872 -0.22197548
00000000: ab34 053f 66b7 8d3f 2041 0f3f 2d94 1d3e
00000010: 4903 92be 3031 003f b758 a73e 8a4d 63be

layer3.weight f4 [7, 8]
0.7853726 0.091930814 -0.24713814 -0.41748556 0.08790607 -0.78187144 0.6010763 -0.92133737
-0.27977872 0.71581954 0.6093249 -1.0404507 0.15477364 0.6133985 -1.1814138 -1.2310385
-1.0013323 0.06749839 -1.1139287 0.5776211 -0.20835978 -0.5049353 0.62864697 0.24436367
-0.7774022 -0.6546379 0.23235317 -0.5733159 -0.17829324 0.118025206 -0.24126871 0.53687376
0.06164896 -1.0342487 0.05743399 0.4940514 -0.028004747 0.5798574 -1.1412212 -0.43762457
0.38039324 0.3297342 -1.2723873 0.679948 0.055876795 -0.7292571 -0.7823972 -0.92751026
-0.9502748 0.5135726 0.21902135 -0.9009619 0.22361314 -1.2730426 0.06682882 0.028263826
00000000: 2e0e 493f 3946 bc3d c811 7dbe abc0 d5be
00000010: 1908 b43d ba28 48bf 23e0 193f c4dc 6bbf
00000020: 283f 8fbe f33f 373f b7fc 1b3f 7d2d 85bf
00000030: fb7c 1e3e af07 1d3f 9138 97bf ab92 9dbf
00000040: a82b 80bf 993c 8a3d 3795 8ebf fade 133f
00000050: 445c 55be 7143 01bf 02ef 203f 783a 7a3e
00000060: d503 47bf 5996 27bf fded 6d3e d5c4 12bf
00000070: 8192 36be 33b7 f13d 250f 77be 8f70 093f
00000080: 9f83 7c3d 4362 84bf e73f 6b3d 4ef4 fc3e
00000090: 366a e5bc 8971 143f 8913 92bf 5410 e0be
000000a0: e7c2 c23e ecd2 a83e 96dd a2bf 1211 2e3f
000000b0: 11df 643d 98b0 3abf 2f4b 48bf 5071 6dbf
000000c0: 3645 73bf 7e79 033f 2247 603e 70a5 66bf
000000d0: d8fa 643e 0ff3 a2bf 8cdd 883d 8a89 e73c

layer3.bias f4 [7]
0.29124382 0.26524827 -0.14921965 -0.3751848 -0.12851255 -0.42787972 -0.27738994
00000000: e91d 953e 9fce 873e 09cd 18be 3918 c0be
00000010: cb98 03be 0d13 dbbe 0e06 8ebe
